services/ml/ml/autoencoder_model.pt (torch, 980569 bytes, 8 tensors)

encoder.0.weight f4 [256, 411]
-0.044714868 0.05228948 0.027942948 0.021584434 -0.027895832 0.024626946 0.05196667 -0.024986764
-0.0036659536 -0.0061348453 0.005096933 0.008486706 0.01646568 0.002695557 0.010125101 0.018667746
-0.01952979 -0.019459486 -0.011141862 -0.038727257 -0.040703453 -0.025329055 0.008628118 -0.05209132
0.032628812 -0.012169996 0.0033646834 -0.030949742 0.029443858 -0.008282824 0.040033955 0.034827273
-0.019183377 0.02244976 -0.03398799 0.019364977 0.0071488675 -0.036886133 0.030233558 0.021354683
0.028736679 -0.001379315 -0.04456869 0.030835573 -0.015183362 -0.019322757 -0.050579596 0.013811321
-0.025923785 0.017250855 -0.06430685 0.0069221505 0.006560187 -0.032984935 0.007207549 -0.026886046
-0.0029512416 -0.02177687 0.008530632 0.019483278 0.032544233 0.017887862 -0.01161337 -0.03159384
0.033688713 -0.0289669 0.023944102 0.0083886385 0.018744774 -0.043956533 0.029862113 -0.0068666306
0.009301341 -0.03767177 -0.044097725 0.05067504 0.02917628 0.03193073 0.05688016 0.029350493
0.005505372 0.023149012 -0.029272426 -0.016339298 -0.012853728 -0.028748343 -0.019320002 -0.022567885
0.04785373 0.052599132 -0.04731536 -0.059519444 -0.0331541 -0.022996662 0.035689905 0.014127474
0.011487222 -0.0086128935 -0.051446863 0.05451921 -0.008455505 0.06433102 0.0071258685 -0.030492332
-0.01246538 -0.05154026 0.01436426 0.02668561 0.012341251 -0.026773429 0.0021138317 -0.028470676
0.0011305781 -0.0012647037 0.026747106 0.0011220153 0.022325626 0.056709748 -0.048406664 -0.031246701
-0.029898133 -0.03803619 -0.02668646 -0.03200834 0.016753145 -0.044614602 -0.0017318306 -0.026784744
0.03639636 0.03415599 -0.01365288 0.025171302 0.008097933 -0.035268124 -0.037249774 -0.03861503
-0.0012933321 -0.014889942 -0.006258534 -0.0049559954 0.005202084 0.01991937 -0.007868126 0.051320065
0.0027076933 0.032561924 0.0001708272 0.060963057 -0.024020284 0.024900885 0.014821156 -0.015458416
-0.020341638 -0.012192634 -0.04321646 -0.0063047204 0.0005641495 -0.0028558522 -0.019116834 -0.026937168
0.049086574 0.003788161 0.023732426 -0.063138574 -0.03827257 0.05622821 -0.051924404 -0.053212594
-0.060732868 -8.2361104e-05 -0.058209985 0.029658433 0.039914235 0.019007957 0.0011654752 0.057305764
0.016028676 0.033331122 -0.056093592 -0.012622214 0.002120738 -0.047935307 0.014106754 0.014578022
0.0018110314 -0.0067375377 0.013896873 0.04093718 0.0033666776 0.060226392 0.029254656 0.01231152
-0.03816952 -0.0004989564 0.016248537 -0.03081418 -0.021756735 -0.008068204 -0.016013553 0.06431283
-0.033476684 0.041879084 -0.053820055 -0.06424078 -0.040370047 0.009904596 -0.015628451 0.039909385
-0.011296309 -0.0044725067 -0.0453427 -0.034678634 -0.04759338 0.028910989 -0.016564798 -0.031351715
0.027071562 0.025765223 -0.05853938 -0.008119021 0.043535836 -0.048222024 0.025318911 0.04581109
0.036131863 0.029755872 -0.06344633 -0.019955743 -0.052469548 -0.025964128 -0.029236957 0.039221518
0.030278055 0.04321398 0.06326171 0.013344541 0.002617347 -0.021076206 0.008115294 0.041152976
-0.007184678 0.05035607 -0.012307804 -0.018279288 0.0018954391 -0.025027212 -0.025446976 0.0007119617
-0.04103643 0.040538024 -0.029918902 0.029697508 0.022894654 -0.0612498 0.049090113 0.059854448
00000000: f026 37bd 7e2d 563d 9ce8 e43c d7d1 b03c
00000010: cd85 e4bc 73be c93c 01db 543d 0bb1 ccbc
00000020: 7f40 70bb d006 c9bb 2c04 a73b d30b 0b3c
00000030: 09e3 863c f1a7 303b c0e3 253c 1aed 983c
00000040: f0fc 9fbc 8069 9fbc 5b8c 36bc 79a0 1ebd
00000050: aab8 26bd e17e cfbc f35c 0d3c b55d 55bd
00000060: caa5 053d aa64 47bc 0582 5c3b 508a fdbc
00000070: 3f34 f13c afb4 07bc a5fa 233d 0ba7 0e3d
00000080: 7526 9dbc 8fe8 b73c fe36 0bbd 4da3 9e3c
00000090: 0c41 ea3b ea15 17bd 5eac f73c 04f0 ae3c
000000a0: 2f69 eb3c 22ca b4ba a98d 36bd e29a fc3c
000000b0: a3c3 78bc c24a 9ebc 8d2c 4fbd e148 623c
000000c0: 1e5e d4bc aa51 8d3c 4fb3 83bd 35d3 e23b
000000d0: d6f6 d63b 361b 07bd 4e2d ec3b 2040 dcbc
000000e0: 9e69 41bb 6865 b2bc 10c4 0b3c 659b 9f3c
000000f0: 1a4d 053d 9189 923c 0146 3ebc 8b68 01bd
00000100: 2dfd 093d fe4b edbc 6c26 c43c 8070 093c
00000110: a48e 993c c40b 34bd 64a1 f43c 7901 e1bb
00000120: a764 183c b74d 1abd d19f 34bd a190 4f3d
00000130: 1803 ef3c ccc9 023d 2cfb 683d 7270 f03c
00000140: 6866 b43b ffa2 bd3c bacc efbc fed9 85bc
00000150: 7198 52bc a581 ebbc fb44 9ebc 49e0 b8bc
00000160: 4602 443d 3072 573d c0cd 41bd a9ca 73bd
00000170: 98cc 07bd 7f63 bcbc 942f 123d ec76 673c
00000180: e734 3c3c 181d 0dbc f2b9 52bd 894f 5f3d
00000190: f588 0abc fbbf 833d 1e80 e93b 0ecb f9bc
000001a0: 983b 4cbc e11b 53bd 1358 6b3c c89b da3c
000001b0: f532 4a3c f353 dbbc 3688 0a3b 563b e9bc
000001c0: e82f 943a 6ac4 a5ba bf1c db3c 9610 933a
000001d0: 3be4 b63c 7b48 683d 1146 46bd 15f9 ffbc
000001e0: eeec f4bc d6cb 1bbd 909d dabc 2d1b 03bd
000001f0: e43d 893c cdbd 36bd 98fe e2ba ae6b dbbc
00000200: 5914 153d 27e7 0b3d 54b0 5fbc 0c34 ce3c
00000210: 31ad 043c 4f75 10bd 3893 18bd cb2a 1ebd
00000220: 0685 a9ba f1f4 73bc 6314 cdbb e765 a2bb
00000230: 3e76 aa3b f22d a33c 50e9 00bc fd34 523d
00000240: 8e73 313b a75f 053d 1420 3339 66b4 793d
00000250: 30c6 c4bc f1fc cb3c 6fd4 723c 4c45 7dbc
00000260: 82a3 a6bc 9dc3 47bc be03 31bd d497 cebb
00000270: 6fe3 133a 4029 3bbb e89a 9cbc 56ab dcbc
00000280: 010f 493d cc42 783b 816a c23c cc4e 81bd
00000290: b3c3 1cbd 8d4f 663d afae 54bd 73f5 59bd
000002a0: 07c3 78bd 48b9 acb8 986d 6ebd 3ef6 f23c
000002b0: 1c7d 233d 93b6 9b3c dcc2 983a 73b9 6a3d
000002c0: 924e 833c 3786 083d 65c2 65bd 67cd 4ebc
000002d0: 14fc 0a3b d057 44bd 0420 673c a8d8 6e3c
000002e0: 2160 ed3a 90c6 dcbb b6af 633c bfad 273d
000002f0: 7aa3 5c3b f3af 763d 76a7 ef3c 42b6 493c
00000300: a557 1cbd 66cc 02ba a71b 853c 056e fcbc
00000310: 2e3b b2bc 8030 04bc db2e 83bc 72b6 833d
00000320: d91e 09bd 6789 2b3d 6b72 5cbd ac90 83bd
00000330: 105b 25bd e346 223c 3d07 80bc 0678 233d
00000340: 2714 39bc 1b8e 92bb 44b9 39bd 2f0b 0ebd
00000350: 47f1 42bd bdd6 ec3c e6b2 87bc a86a 00bd
00000360: 2ec5 dd3c 9711 d33c fdc6 6fbd a405 05bc
00000370: a252 323d 7584 45bd 9b69 cf3c 69a4 3b3d
00000380: 01ff 133d 96c2 f33c 26f0 81bd 3a7a a3bc
00000390: 4fea 56bd b9b2 d4bc 5882 efbc bea6 203d
000003a0: af09 f83c 2401 313d 5b8f 813d 10a3 5a3c
000003b0: cc87 2b3b 02a8 acbc 03f6 043c 0690 283d
000003c0: 736d ebbb 2b42 4e3d aca6 49bc 72be 95bc
000003d0: 6270 f83a de05 cdbc 2d76 d0bc f1a2 3a3a
000003e0: d115 28bd 330b 263d 7c18 f5bc 3048 f33c
000003f0: 928d bb3c 12e1 7abd b712 493d f029 753d

encoder.0.bias f4 [256]
0.049389973 -0.009509639 -0.0029497026 0.022569463 -0.034872733 0.0007663247 -0.036733605 -0.0025371478
0.013136251 0.030072914 -0.025238484 -0.011378867 -0.019095607 0.028893063 -0.011130769 0.020014819
0.014598205 0.020494 -0.02313667 0.012358028 0.026365995 -0.047823083 -0.0419291 0.0034396506
-0.04106533 -0.031669877 -0.023556337 -0.008585381 0.054643683 0.01475757 0.016259102 -0.009925576
-0.027038462 -0.008399994 -0.039590452 0.027801272 0.023759216 0.032698397 -0.018496193 -0.030052505
0.010954348 -0.049234923 -0.020518746 0.032613255 0.04773412 0.051847447 0.025896022 0.016288085
-0.0017965778 0.013584286 0.017705 0.029738044 0.03581851 -0.03598309 -0.019190928 -0.052350745
-0.030665707 0.051047485 0.04416323 -0.003261161 -0.02728962 -0.029094623 0.05647529 -0.011082366
0.007108971 0.033932883 -0.010115924 0.0011420448 0.02613218 0.038061757 -0.0142196035 0.046121225
0.05518492 -0.017948698 -0.02818341 -0.00915279 0.034537196 -0.04872917 0.0019497173 0.020755636
0.044261772 0.03505663 -0.02313319 0.045412127 0.0040430436 -0.013604483 -0.0134147685 -0.006886356
0.010708429 0.0038444977 -0.0069780666 -0.022367716 -0.0029980128 -0.013247248 -0.0163596 0.021489484
-0.03388604 -0.024149887 -0.043529924 0.011292329 0.019079316 0.02226428 0.015385921 -0.00822242
0.028518973 -0.023786787 0.013496822 -0.03948431 -0.010913039 -0.044324834 0.037711423 -0.011620073
-0.010892999 -0.03580939 -0.022013243 0.04223432 0.031476345 -0.053165086 0.03192745 -0.032068353
-0.0062973825 0.055573538 0.052096352 0.0009706983 -0.011398992 0.0029943 0.028383298 0.029645264
0.036045738 0.013265699 -0.023619406 0.02574713 -0.013213194 0.0010768757 0.05476447 -0.018328622
-0.043762613 -0.026609937 0.061809134 -0.0026715167 -0.019063424 0.0033204393 0.045801956 -0.02537325
-0.046649393 0.049930584 -0.024772003 0.0032333152 -0.032856766 -0.015326344 0.044317465 -0.0026787962
-0.052891355 0.038648564 -0.031361617 0.024526652 -0.039420385 -0.020422205 -0.013963141 0.037091378
-0.026642824 -0.0055216984 -0.038797118 -0.041456886 0.034695845 0.0167056 -0.008966824 0.0035731094
-0.016587356 -0.026990216 0.026448553 -0.0077846153 0.039008733 -0.01047468 -0.026802216 -0.030098593
-0.04239698 -0.01423164 0.0149268685 0.0051426096 0.01633347 -0.015640894 0.0048090583 -0.026131036
0.024832094 0.032442793 -0.014068346 0.006144927 0.008270981 0.04413023 -0.0038152207 0.018908862
0.035531506 0.03214027 -0.023684315 0.03938573 0.026484312 -0.01634677 0.052372355 0.009914114
-0.04441334 -0.036559224 -0.023782795 -0.03474533 0.010624627 -0.023785837 -0.03612435 0.0073908865
0.025095189 -0.016822774 -0.025463104 -0.038435906 0.024960889 0.046888884 0.01069362 0.013556552
-0.024722908 0.038052093 -0.040375084 0.01535489 0.0071973177 0.040331427 -0.009022245 -0.03914806
0.00032685214 -0.0025525738 -0.024432462 0.034350716 -0.024174444 0.05803914 -0.04377954 -0.023890527
0.0057891947 -0.014616085 -0.00896892 0.03895169 0.013593408 -0.03629339 0.0078038177 0.013997091
-0.017637158 0.01761632 0.021832723 -0.029743765 0.04657367 -0.0526888 0.029435202 0.007289785
-0.030565001 -0.0069543123 -0.0039661145 -0.006340679 -0.014502048 0.03884656 -0.016628051 0.022257868
00000000: 244d 4a3d 51ce 1bbc cc4f 41bb 98e3 b83c
00000010: b6d6 0ebd 2ee3 483a fa75 16bd 4746 26bb
00000020: 6e39 573c 795b f63c f0c0 cebc 6d6e 3abc
00000030: 646e 9cbc 25b1 ec3c d45d 36bc 1ef6 a33c
00000040: 4f2d 6f3c 08e3 a73c 1d89 bdbc 5479 4a3c
00000050: 80fd d73c 23e2 43bd d9bd 2bbd c36b 613b
00000060: 1f34 28bd 46b8 01bd 38f9 c0bc b3a9 0cbc
00000070: 0ed2 5f3d bcc9 713c cf31 853c e29e 22bc
00000080: c47f ddbc 21a0 09bc 9929 22bd 7ebf e33c
00000090: b0a2 c23c c1ee 053d 5485 97bc ac30 f6bc
000000a0: de79 333c 8faa 49bd ee16 a8bc 7a95 053d
000000b0: da84 433d fd5d 543d e523 d43c 976e 853c
000000c0: 267b ebba a090 5e3c 130a 913c 339d f33c
000000d0: 6eb6 123d 0163 13bd 4b36 9dbc bc6d 56bd
000000e0: a636 fbbc 2b17 513d 81e4 343d 34b9 55bb
000000f0: 7b8e dfbc d957 eebc a252 673d d092 35bc
00000100: 5ff2 e83b 35fd 0a3d 43bd 25bc aab0 953a
00000110: 2713 d63c a5e6 1b3d 57f9 68bc 9ce9 3c3d
00000120: 9509 623d 2609 93bc e5e0 e6bc 95f5 15bc
00000130: e076 0d3d 3d98 47bd a88d ff3a b907 aa3c
00000140: d54b 353d 8a97 0f3d d181 bdbc 1102 3a3d
00000150: 827b 843b 56e5 5ebc 9ec9 5bbc f1a6 e1bb
00000160: 6872 2f3c f8f3 7b3b 44a8 e4bb 803c b7bc
00000170: 4f7a 44bb fc0a 59bc 9104 86bc b70a b03c
00000180: 17cc 0abd fcd5 c5bc 6f4c 32bd 7603 393c
00000190: 3a4c 9c3c 9463 b63c 3b15 7c3c 54b7 06bc
000001a0: 9fa0 e93c 82dc c2bc c621 5d3c 4dba 21bd
000001b0: 9acc 32bc f58d 35bd 4b77 1a3d 1e62 3ebc
000001c0: 8d78 32bc deac 12bd 1e55 b4bc e5fd 2c3d
000001d0: 57ed 003d a2c3 59bd 5cc6 023d 1b5a 03bd
000001e0: 465a cebb 14a1 633d fc62 553d 7676 7e3a
000001f0: d6c2 3abc 053c 443b 1784 e83c a0da f23c
00000200: b2a4 133d 6058 593c 7c7d c1bc a5eb d23c
00000210: 277c 58bc f425 8d3a b550 603d e825 96bc
00000220: 6d40 33bd 15fd d9bc 932b 7d3d 9d14 2fbb
00000230: e62a 9cbc ba9b 593b d59a 3b3d 90db cfbc
00000240: 6f13 3fbd 0384 4c3d a8ee cabc 07e6 533b
00000250: d194 06bd 591b 7bbc 3b86 353d be8e 2fbb
00000260: 9ba4 58bd f54d 1e3d 0a75 00bd 1eec c83c
00000270: 4577 21bd 784c a7bc a8c5 64bc 21ed 173d
00000280: 0d42 dabc 5def b4bb bae9 1ebd b2ce 29bd
00000290: 3b1d 0e3d 2fda 883c 96e9 12bc d42a 6a3b
000002a0: 35e2 87bc 961a ddbc a3aa d83c 1616 ffbb
000002b0: 9fc7 1f3d fe9d 2bbc 5290 dbbc 5391 f6bc
000002c0: 75a8 2dbd d32b 69bc d38f 743c 5683 a83b
000002d0: c5cd 853c 5521 80bc 4e95 9d3b c110 d6bc
000002e0: ad6c cb3c bce2 043d eb7e 66bc 625b c93b
000002f0: 0283 073c e6c1 343d c808 7abb c2e6 9a3c
00000300: 7c89 113d 84a5 033d 9c05 c2bc ee52 213d
00000310: a1f5 d83c a9e9 85bc 6584 563d cf6e 223c
00000320: c3ea 35bd 20bf 15bd 23d4 c2bc 1f51 0ebd
00000330: ea12 2e3c 84da c2bc 20f7 13bd 402f f23b
00000340: 6d94 cd3c eacf 89bc 0098 d0bc f86e 1dbd
00000350: c77a cc3c 8f0e 403d 4b34 2f3c 4d1c 5e3c
00000360: b287 cabc 83dc 1b3d 5860 25bd 1493 7b3c
00000370: 7ad7 eb3b 9132 253d 0ad2 13bc b759 20bd
00000380: 5a5d ab39 1549 27bb 9626 c8bc 56b3 0c3d
00000390: 7c09 c6bc 73ba 6d3d 2d52 33bd 11b6 c3bc
000003a0: 49b3 bd3b 4e78 6fbc 61f2 12bc cf8b 1f3d
000003b0: e3b6 5e3c 61a8 14bd 2bb7 ff3b 0e54 653c
000003c0: cd7b 90bc 1a50 903c 8ada b23c 32a9 f3bc
000003d0: 08c4 3e3d 36d0 57bd 1822 f13c 26df ee3b
000003e0: 7463 fabc 00e1 e3bb 2ef6 81bb 78c5 cfbb
000003f0: ff99 6dbc 921d 1f3d 8d37 88bc 2256 b63c

encoder.2.weight f4 [64, 256]
0.031380225 -0.0035710498 -0.045675725 0.03811215 0.069800265 0.046110593 -0.05253007 0.043203756
0.021404596 0.03762056 -0.010120722 -0.04037083 0.041598465 0.01127975 -0.031484514 -0.04614682
-0.008004691 0.07314922 0.04519151 -0.06778793 0.0023097973 -0.033687502 -0.03932792 -0.046037026
0.06061751 -0.016329437 -0.038264655 -0.03863747 0.0554753 -0.001354033 0.07112885 -0.046845518
-0.0159435 -0.051758237 0.037976854 -0.0050326074 0.0014807426 -0.02473622 0.070327565 0.04317658
0.025600042 -0.016641507 -0.043434657 0.015503468 -0.017065072 0.027383883 -0.0063183066 0.0040280395
0.05217234 -0.044251557 0.05581301 -0.03330336 0.0039783646 0.066683255 0.05240276 0.045475736
0.055957302 0.00861619 -0.018762892 0.039337207 0.00962268 0.058360346 -0.0116693145 0.0059222775
-0.030570073 0.036556963 -0.017446507 0.023966985 -0.00884436 0.054086916 0.074989006 -0.04848237
-0.0202433 0.024414744 -0.020791478 0.027324697 0.052914217 0.026475625 0.030490855 0.011780826
-0.01863859 -0.048142143 0.063122265 -0.016768219 0.018479751 -0.0031992975 0.0074348375 -0.04732861
0.029698921 -0.03201104 0.029558092 0.0039774594 -0.010659843 0.033611596 0.045680977 0.047791943
-0.015711887 -0.056752417 0.050329775 0.0012870332 0.037985846 0.06335412 -0.0054888944 -0.017503615
0.051533815 0.03535666 0.024597893 0.05268577 0.05527692 -0.0027547202 -0.03958286 0.030041048
0.042318664 0.006821902 0.07940456 0.07735055 0.039483525 -0.009515783 0.025626473 -0.046388287
0.0006778514 -0.032800823 0.081195824 -0.014328974 0.03562891 0.014356611 0.046414636 -0.041211545
0.055826347 0.056392033 0.049968958 -0.04936187 0.008091221 0.00856073 0.07053486 -0.004874803
0.024459563 -0.005863658 0.056578033 -0.020057136 0.06665652 0.028494531 -0.046299044 0.003518622
0.055166803 0.006544562 0.0057309545 0.046451047 0.002374962 0.03946341 0.016675731 0.008489728
0.060508497 -0.006597432 0.00018361124 0.026989281 0.053527586 -0.029579991 -0.042221185 0.04063642
0.015422406 -0.0020964989 -0.037808567 0.037613653 0.05991669 0.067354806 0.05687964 -0.0366076
0.02026197 0.0025317662 -0.02736567 0.021795973 -0.035914022 0.0215773 -0.03239277 -0.03734011
0.045627296 -0.0599221 -0.05020487 0.039156564 0.036398407 -0.05096797 -0.040959895 -0.049653757
-0.0551017 -0.028127544 0.060528442 0.052862868 0.04772517 0.008102468 0.075720154 0.005846477
-0.027733486 -0.0070794583 0.072413996 -0.033365015 -0.031331554 0.043473963 0.011988959 0.0394461
-0.04778651 -0.050948627 0.005056198 -0.018313775 0.05692751 -0.022309784 -0.035529353 -0.020012239
-0.032442324 -0.007579853 0.010304075 -0.031834006 0.073484205 -0.042235367 -0.006419368 0.06922543
0.03436001 -0.019160876 0.028212383 0.02791123 -0.0106402775 0.051179606 0.043705646 -0.052236818
-0.032786515 -0.053571634 -0.006436695 -0.06293483 0.04572284 0.010822261 -0.048111986 0.04086817
-0.049764547 -0.008977123 -0.032010812 0.028280439 -0.04710377 0.03177336 0.040097006 0.056784507
-0.018606221 -0.050302174 0.05334788 -0.013540885 0.0453345 0.0006987655 0.017579958 0.06304296
0.041449424 -0.059729792 0.037506923 0.042790025 0.059162207 0.04308372 0.02515114 -0.013852975
00000000: 8d88 003d 4608 6abb 7816 3bbd 7c1b 1c3d
00000010: 71f3 8e3d 76de 3c3d c529 57bd 6cf6 303d
00000020: b158 af3c 0418 1a3d 63d1 25bc e25b 25bd
00000030: 2763 2a3d b3ce 383c e8f5 00bd 7304 3dbd
00000040: 1c26 03bc 42cf 953d bc1a 393d 66d4 8abd
00000050: f85f 173b e8fb 09bd 5016 21bd 5291 3cbd
00000060: 114a 783d 50c5 85bc 66bb 1cbd 5342 1ebd
00000070: 113a 633d cf79 b1ba 01ac 913d 16e1 3fbd
00000080: f19b 82bc 7200 54bd 9e8d 1b3d 92e8 a4bb
00000090: 7a15 c23a 9da3 cabc e607 903d edd9 303d
000000a0: 2eb7 d13c c553 88bc 8ae8 31bd 4202 7e3c
000000b0: 0dcc 8bbc 2a54 e03c cc09 cfbb a5fd 833b
000000c0: aab2 553d 1f41 35bd 2f9c 643d 1b69 08bd
000000d0: f15c 823b 3b91 883d 47a4 563d c444 3a3d
000000e0: 7c33 653d ec2a 0d3c a3b4 99bc 0d20 213d
000000f0: 72a8 1d3c 420b 6f3d a730 3fbc aa0f c23b
00000100: 176e fabc c1bc 153d faeb 8ebc 6956 c43c
00000110: efe7 10bc 3e8a 5d3d d693 993d 7395 46bd
00000120: 47d5 a5bc 6e01 c83c e452 aabc 0bd8 df3c
00000130: 94bc 583d 69e3 d83c f5c7 f93c 5e04 413c
00000140: f5af 98bc b230 45bd 3f46 813d 815d 89bc
00000150: d962 973c 4eab 51bb f09f f33b a5db 41bd
00000160: 274b f33c 021e 03bd d023 f23c 5955 823b
00000170: 9fa6 2ebc 50ac 093d fa1b 3b3d 7cc1 433d
00000180: 37b6 80bc 3975 68bd 9826 4e3d abb1 a83a
00000190: 0c97 1b3d cebf 813d 2fdc b3bb be63 8fbc
000001a0: 1f15 533d 25d2 103d 8581 c93c 09cd 573d
000001b0: 0d6a 623d 8988 34bb a321 22bd a518 f63c
000001c0: 5656 2d3d 438a df3b dc9e a23d f769 9e3d
000001d0: 7ab9 213d 16e8 1bbc 9cee d13c a501 3ebd
000001e0: d6b1 313a 285a 06bd ff49 a63d 13c4 6abc
000001f0: 9fef 113d fe37 6b3c 461d 3e3d 70cd 28bd
00000200: 2baa 643d 55fb 663d 40ac 4c3d ac2f 4abd
00000210: 0a91 043c 4e42 0c3c 9574 903d d0bc 9fbb
00000220: 6c5f c83c ee23 c0bb 5ebe 673d dd4e a4bc
00000230: 3783 883d 5d6d e93c 11a4 3dbd ae98 663b
00000240: 96f6 613d c473 d63b bbca bb3b 7443 3e3d
00000250: 40a5 1b3b 62a4 213d 8b9b 883c 8018 0b3c
00000260: c2d7 773d 452f d8bb c487 4039 a018 dd3c
00000270: be3f 5b3d bd51 f2bc 1ff0 2cbd 6072 263d
00000280: 42ae 7c3c 6a65 09bb 28dd 1abd c610 1a3d
00000290: 346b 753d 51f1 893d a0fa 683d daf1 15bd
000002a0: 6efc a53c fdeb 253b f82d e0bc 788d b23c
000002b0: 951a 13bd e1c2 b03c 48ae 04bd f1f1 18bd
000002c0: b0e3 3a3d e070 75bd 9fa3 4dbd a262 203d
000002d0: 7f16 153d cac3 50bd 90c5 27bd bd61 4bbd
000002e0: 52b2 61bd bc6b e6bc acec 773d bc86 583d
000002f0: 787b 433d 37c0 043c 2b13 9b3d ce93 bf3b
00000300: 5631 e3bc cdfa e7bb ca4d 943d c1a9 08bd
00000310: 8455 00bd c111 323d 576d 443c 3c92 213d
00000320: cabb 43bd 82af 50bd 77ae a53b c506 96bc
00000330: d22c 693d 02c3 b6bc 3a87 11bd b5f0 a3bc
00000340: 3ee2 04bd 6a60 f8bb 6cd2 283c 6064 02bd
00000350: e37e 963d fefe 2cbd 9059 d2bb 10c6 8d3d
00000360: 15bd 0c3d 45f7 9cbc a81d e73c 18a6 e43c
00000370: 8f54 2ebc b5a1 513d b104 333d 46f6 55bd
00000380: 274b 06bd ee6d 5bbd e9ea d2bb fae3 80bd
00000390: df47 3b3d da4f 313c 1311 45bd 6265 273d
000003a0: e9d5 4bbd c814 13bc c51d 03bd 61ac e73c
000003b0: e2ef 40bd c824 023d c23c 243d df96 683d
000003c0: 136c 98bc a709 4ebd 4e83 5a3d 97da 5dbc
000003d0: abb0 393d 5c2d 373a d803 903c ab1c 813d
000003e0: dfc6 293d 3aa7 74bd dca0 193d 9844 2f3d
000003f0: 1254 723d 8e78 303d c309 ce3c 97f7 62bc

encoder.2.bias f4 [64]
0.0018242106 -0.028203085 0.041985385 -0.0609081 0.031055845 -0.041322596 0.056820355 0.019300943
-0.0049051642 -0.034586705 -0.045660347 -0.04611803 -0.016875817 -0.04252405 -0.033716753 0.02335545
-0.038148805 0.02983628 0.031278238 0.04285682 -0.04287785 0.04034933 0.03062298 -0.00048370322
-0.046553537 0.0073854853 -0.013108268 0.014826777 -0.03790476 0.05839888 0.017425638 0.05744481
0.015443864 0.00023037696 -0.04886197 -0.054305617 0.057967577 -0.03759339 -0.031247525 0.034165137
-0.037460055 0.046449374 -0.0069998503 0.03204981 0.03876572 -0.04442542 0.016460007 0.02398015
0.014785989 0.022929724 -0.060390413 0.018235093 -0.030897593 0.027180616 0.03649338 0.0711625
0.019260395 -0.048886105 -0.02238327 0.025451615 0.0018514994 0.009685878 -0.017656263 0.034885243
00000000: 5a1a ef3a 280a e7bc def8 2b3d c67a 79bd
00000010: d468 fe3c e241 29bd 76bc 683d 031d 9e3c
00000020: 80bb a0bb caaa 0dbd 5806 3bbd 42e6 3cbd
00000030: 273f 8abc b32d 2ebd 941a 0abd ee53 bf3c
00000040: ec41 1cbd 376b f43c 9c1d 003d a28a 2f3d
00000050: afa0 2fbd 5745 253d 0bdd fa3c 8c99 fdb9
00000060: ecae 3ebd f101 f23b 10c4 56bc 03ec 723c
00000070: 0642 1bbd aa33 6f3d 36c0 8e3c 404b 6b3d
00000080: 4308 7d3c 5891 7139 7d23 48bd 916f 5ebd
00000090: 696f 6d3d 87fb 19bd cffa ffbc bef0 0b3d
000000a0: b76f 19bd b341 3e3d 005f e5bb a946 033d
000000b0: cec8 1e3d 6ef7 35bd 23d7 863c 0572 c43c
000000c0: ef40 723c 1ed7 bb3c f05b 77bd c361 953c
000000d0: f31c fdbc e2a9 de3c 157a 153d a5bd 913d
000000e0: fac7 9d3c cc3c 48bd 1f5d b7bc e87f d03c
000000f0: 03ae f23a 84b1 1e3c dea3 90bc d4e3 0e3d

decoder.0.weight f4 [256, 64]
-0.07018154 -0.07636848 -0.044618562 -0.018533044 0.095300786 0.016155913 0.030422864 -0.027811652
0.012780324 0.008325583 -0.0010053664 -0.092502624 0.110704325 0.07600416 0.046787996 0.012792277
0.037307903 0.116968036 -0.050676342 -0.010637899 -0.05818815 0.022617562 -0.013522565 0.074980475
0.11923917 0.04023702 0.09607569 -0.052282166 0.051496446 0.108291514 -0.048427526 0.012881494
-0.11896621 0.0674039 0.13066971 0.042608395 0.018412748 -0.0063702823 -0.040130075 0.049857087
0.09053983 0.023166278 0.114566885 0.021633774 0.031192008 -0.03239563 0.06193379 0.09244968
0.12631157 -0.04130462 0.0972441 0.04361473 0.13136187 0.116256885 0.11669394 0.028257208
0.06422489 -0.06433527 -0.08888336 -0.084378794 -0.10613971 -0.08730591 -0.08109364 0.12635115
0.10049658 0.0805176 -0.009764201 -0.029954657 0.09931513 0.10589178 0.041528538 -0.0149107985
-0.022385344 0.0732718 -0.017319337 0.045447856 0.023391958 0.077368155 0.078175664 -0.023038683
0.015956968 0.115924075 -0.02039461 -0.078486316 0.06109889 -0.05267722 0.058641613 -0.023867927
0.07858698 0.02549418 0.030946603 -0.02317912 0.07309428 -0.045151234 0.069596425 -0.07691375
-0.02954904 -0.10951018 -0.050122272 -0.0017288381 0.094817966 0.03216123 0.04172242 -0.007541155
-0.044623233 0.0908331 -0.012931745 -0.08059382 -0.015674153 0.029618835 -0.049137276 -0.032256912
-0.045272645 -0.00035409257 -0.06534763 0.036557 -0.04433283 -0.009333544 -0.03700878 -0.0031640206
0.04982122 -0.02681391 -0.12427334 -0.05656058 0.03380631 -0.017233213 -0.050423563 0.01438609
0.07064401 -0.07309294 0.06032961 -0.047508344 -0.050232697 -0.044255212 -0.06535773 0.033162493
0.097966865 0.08284378 -0.07106295 0.033030003 -0.041580237 -0.08287148 -0.044922512 -0.05921225
0.041284382 0.01748507 0.079956144 -0.10702575 -0.027318107 0.016628845 0.113565184 -0.023132533
0.015035091 -0.06627169 -0.036663245 -0.12656383 -0.049214676 -0.12656488 0.11217246 0.015036234
0.055952944 -0.1061148 0.029075757 0.044703107 0.084970705 0.05296789 -0.035703823 -0.018033637
-0.05945135 -0.045231752 -0.020680416 0.044914454 -0.06539278 0.08596194 -0.013836235 -0.072658576
0.011967954 -0.079175495 -0.12146276 -0.016800815 0.049594007 0.06140778 -0.034342516 -0.035206743
-0.009085566 -0.1129027 0.036427293 -0.0081491 -0.1149697 0.11621991 -0.101192206 0.06846881
-0.08872607 0.024613943 -0.051525697 -0.10266889 0.10863046 -0.08914293 -0.020451851 0.08181697
-0.027907327 0.123717576 -0.08558436 -0.11686381 -0.085468605 0.009905701 0.07111802 -0.06758489
0.0037445575 0.06352905 -0.090153806 0.09394262 -0.060340725 0.042130817 0.037465904 -0.123845965
0.0081501035 0.09451976 -0.0018604205 0.07581355 -0.07776959 0.04649602 0.08917227 -0.09450825
0.113925874 -0.028777706 -0.1108337 -0.053182304 -0.093633465 -0.04208544 -0.11655359 -0.12317121
0.06662287 -0.09126048 -0.112717666 -0.007953931 -0.06996536 -0.07884247 -0.072635435 -0.02498081
-0.09065649 -0.0026616654 0.11207262 0.07962505 0.08043615 -0.096891016 -0.10819029 -0.0067394013
0.128076 -0.0463762 -0.0049934513 0.051014513 0.015471994 -0.05363771 0.00753672 0.11724921
00000000: 57bb 8fbd 1467 9cbd f4c1 36bd 9cd2 97bc
00000010: 0f2d c33d 6859 843c 5f39 f93c 43d5 e3bc
00000020: 9064 513c 0768 083c 80c6 83ba 0472 bdbd
00000030: f3b8 e23d 12a8 9b3d c5a4 3f3d b396 513c
00000040: 2cd0 183d f08c ef3d ff91 4fbd 954a 2ebc
00000050: b356 6ebd 7748 b93c c08d 5dbc 5d8f 993d
00000060: aa33 f43d 93cf 243d 55c3 c43d d325 56bd
00000070: f0ed 523d f1c7 dd3d f15b 46bd e70c 533c
00000080: 8ea4 f3bd 0e0b 8a3d 48ce 053e 2486 2e3d
00000090: 55d6 963c cdbd d0bb 6f5f 24bd f236 4c3d
000000a0: f26c b93d 35c7 bd3c 0ba2 ea3d 5039 b13c
000000b0: 6286 ff3c 48b1 04bd 49ae 7d3d 4256 bd3d
000000c0: d257 013e 092f 29bd ea27 c73d 5ca5 323d
000000d0: ba83 063e 1718 ee3d 3bfd ee3d a97b e73c
000000e0: 5788 833d 36c2 83bd 7b08 b6bd cace acbd
000000f0: c75f d9bd 71cd b2bd 6c14 a6bd 3262 013e
00000100: 27d1 cd3d 69e6 a43d 07fa 1fbc 7863 f5bc
00000110: bb65 cb3d cadd d83d d419 2a3d 6c4c 74bc
00000120: 7861 b7bc 870f 963d 48e1 8dbc 8827 3a3d
00000130: 7ea0 bf3c 3273 9e3d 901a a03d 9fbb bcbc
00000140: 30b8 823c 9a69 ed3d 9912 a7bc 6fbd a0bd
00000150: d442 7a3d 12c4 57bd 3032 703d ac86 c3bc
00000160: 36f2 a03d 2cd9 d03c bb83 fd3c 23e2 bdbc
00000170: 74b2 953d 80f0 38bd 9288 8e3d f584 9dbd
00000180: d410 f2bc e046 e0bd 034d 4dbd 2e9a e2ba
00000190: ec2f c23d 7ebb 033d 21e5 2a3d cb1b f7bb
000001a0: dac6 36bd b406 ba3d abdf 53bc 5f0e a5bd
000001b0: 1567 80bc 33a3 f23c 2b44 49bd d31f 04bd
000001c0: cf6f 39bd 80a5 b9b9 fad4 85bd cbbc 153d
000001d0: 5796 35bd b9eb 18bc 8596 17bd 755b 4fbb
000001e0: 5611 4c3d d8a8 dbbc 0583 febd 11ac 67bd
000001f0: 7c78 0a3d ab2c 8dbc f088 4ebd a3b3 6b3c
00000200: cfad 903d c0b1 95bd 2e1c 773d 1c98 42bd
00000210: cdc0 4dbd f444 35bd 46da 85bd 65d5 073d
00000220: daa2 c83d 00aa a93d 7489 91bd 784a 073d
00000230: 0a50 2abd 86b8 a9bd ab00 38bd 8b88 72bd
00000240: d019 293d d93c 8f3c 0cc0 a33d 5130 dbbd
00000250: 39ca dfbc 3739 883c dd94 e83d 7080 bdbc
00000260: be55 763c 74b9 87bd 332c 16bd f399 01be
00000270: 5495 49bd 399a 01be adba e53d 895a 763c
00000280: ea2e 653d b752 d9bd 4830 ee3c 9b1a 373d
00000290: 1f05 ae3d dcf4 583d 2c3e 12bd 47bb 93bc
000002a0: 4283 73bd ee44 39bd fa69 a9bc 38f8 373d
000002b0: a6ec 85bd d00c b03d 60b1 62bc 05ce 94bd
000002c0: 3d15 443c c326 a2bd 78c1 f8bd dda1 89bc
000002d0: 1623 4b3d b986 7b3d bdaa 0cbd f234 10bd
000002e0: a0db 14bc 8839 e7bd c934 153d cd83 05bc
000002f0: 3c75 ebbd b404 ee3d dc3d cfbd 6039 8c3d
00000300: 04b6 b5bd 2ea3 c93c 9c0c 53bd 1144 d2bd
00000310: a679 de3d 9290 b6bd a48a a7bc a88f a73d
00000320: e89d e4bc a45f fd3d da46 afbd 4b56 efbd
00000330: 2a0a afbd 854b 223c 53a6 913d f269 8abd
00000340: 4067 753b 851b 823d 8fa2 b8bd fd64 c03d
00000350: d627 77bd 5d91 2c3d d975 193d f4a2 fdbd
00000360: 0388 053c 9393 c13d 5ad9 f3ba 2244 9b3d
00000370: aa45 9fbd 9c72 3e3d f39f b63d 8b8d c1bd
00000380: f851 e93d 39bf ebbc c7fc e2bd b0d5 59bd
00000390: e7c2 bfbd c861 2cbd a6b3 eebd 3041 fcbd
000003a0: 9271 883d c6e6 babd 85d8 e6bd 3451 02bc
000003b0: 004a 8fbd 2978 a1bd e3c1 94bd 8ea4 ccbc
000003c0: 1caa b9bd 566f 2ebb 5486 e53d 7512 a33d
000003d0: b5bb a43d cc6e c6bd df92 ddbd 32d6 dcbb
000003e0: 5b26 033e f8f4 3dbd 1ba0 a3bb 98f4 503d
000003f0: 3f7e 7d3c 37b3 5bbd 97f6 f63b 5b20 f03d

decoder.0.bias f4 [256]
0.09238168 0.056822103 -0.030751243 0.0732332 0.047005344 0.098050386 -0.06625037 0.011767046
0.052347038 0.019659808 -0.10668877 -0.05427499 0.06398234 0.07401509 -0.029582813 -0.036097005
0.04403372 0.051356386 0.07619817 -0.04867957 -0.05183947 -0.09348269 0.10958359 -0.12232393
0.00056638446 0.010037839 -0.099335 -0.07230513 -0.072314724 -0.01841718 0.076393545 -0.09087004
0.022997025 -0.09959377 -0.09977026 -0.041827336 0.028977595 0.018228766 0.104718894 -0.06796841
-0.022394693 0.012859893 -0.072548196 0.08472716 -0.12381718 0.07423873 0.058963615 -0.09241237
0.08473631 -0.018523933 0.07691031 -0.015187472 0.021904953 -0.11978158 0.070230134 -0.07696732
-0.121030286 -0.07038769 0.015686816 -0.09030722 -0.11184506 -0.10312486 -0.065126896 -0.05769017
0.06306788 -0.09810372 -0.07044819 0.070064485 0.08595857 -0.037309617 -0.06441833 -0.120804176
-0.12177956 0.05651653 0.05464143 -0.10483071 -0.041197296 -0.11974085 -0.040465385 0.11361883
0.05552488 0.029567422 0.01689781 -0.016356178 0.031160545 -0.010043097 -0.12185094 -0.03361633
-0.0714072 0.10018283 0.03934019 0.0996857 0.06970201 -0.088188395 0.026836773 0.08143682
-0.021681424 -0.0815382 0.06432442 -0.010265018 0.01287286 0.06505273 0.0584753 0.00091546425
0.007893654 -0.03504883 -0.109821096 0.03471263 0.05907362 0.09695439 -0.071027055 -0.047602132
-0.075041 0.07066991 0.012749597 -0.09647398 -0.081484005 -0.09655577 -0.037418753 -0.054528743
0.08361504 0.04104555 0.0060254396 0.08014673 -0.091230124 0.08877178 0.024559112 0.03891243
0.006081926 0.11517732 0.08460592 -0.00011858407 -0.07275648 -0.05599536 -0.029825954 0.07696391
0.08062267 0.08098779 -0.122423604 0.061537277 -0.061963305 0.06620576 0.026868198 -0.058701277
0.07101275 0.05752499 -0.10000607 0.086475216 -0.016089827 0.10137923 -0.008709028 -0.074110866
-0.04751031 0.045470815 0.048509356 0.025251135 0.073940895 0.07386421 0.06830472 0.060907938
0.11118708 0.017643172 -0.11802721 -0.045557406 0.05695285 0.10458277 0.04296424 -0.11819893
-0.06729533 -0.12413874 -0.1085909 -0.033103995 -0.1239353 0.011332007 -0.022170207 0.016941978
0.021273436 -0.050806373 0.05937542 -0.103150085 -0.036508687 0.11843542 -0.11618361 0.077676415
0.03829501 -0.04062383 0.089014396 0.03643678 0.04429117 -0.07314974 0.034162547 0.027670113
0.08143318 -0.0041383803 -0.035876136 0.06495279 -0.0045907274 -0.11728303 -0.09760536 -0.12033351
0.07570952 0.016964966 0.026693305 -0.08755769 -0.055354953 -0.07162661 -0.05031243 -0.0848916
0.0724166 -0.11597291 -0.123970285 -0.056797937 0.050496716 -0.027485251 0.07253193 -0.110315114
-0.045248628 0.08901882 -0.09047082 0.0567481 0.05011024 -0.09664875 0.042244833 0.027314737
-0.01068206 0.079960056 0.11166905 0.13636152 0.059366263 -0.011678599 0.06486036 0.06709261
-0.0042640604 -0.061650693 0.07976865 -0.07005287 -0.058196396 0.111166395 0.084494516 0.086918615
0.10022222 0.10083843 0.05114549 -0.12102392 -0.10889354 -0.019706266 -0.06098976 0.13471083
-0.10550182 0.022082254 -0.04665571 0.0861237 -0.09014638 -0.116663106 0.066136084 0.07065364
00000000: 9b32 bd3d 4bbe 683d 08ea fbbc 4afb 953d
00000010: ad88 403d a4ce c83d 46ae 87bd 91ca 403c
00000020: d969 563d 9b0d a13c a47f dabd 744f 5ebd
00000030: 2c09 833d 3995 973d a857 f2bc 74da 13bd
00000040: b45c 343d 135b 523d c90d 9c3d 3b64 47bd
00000050: a055 54bd da73 bfbd 5c6d e03d f884 fabd
00000060: 6b79 143a c075 243c 2670 cbbd b614 94bd
00000070: be19 94bd a0df 96bc 3874 9c3d 121a babd
00000080: 4264 bc3c d2f7 cbbd 5a54 ccbd 2453 2bbd
00000090: 6c62 ed3c 7e54 953c dc76 d63d 0633 8bbd
000000a0: 1375 b7bc 4db2 523c 2694 94bd 6f85 ad3d
000000b0: dd93 fdbd 7a0a 983d d583 713d b242 bdbd
000000c0: 3b8a ad3d 81bf 97bc 2783 9d3d e0d4 78bc
000000d0: 0472 b33c 0c50 f5bd d1d4 8f3d 0ba1 9dbd
000000e0: bade f7bd 6c27 90bd a381 803c fef2 b8bd
000000f0: 060f e5bd 2033 d3bd 4061 85bd 874c 6cbd
00000100: bc29 813d 9aea c8bd 2447 90bd f87d 8f3d
00000110: 0c0b b03d f8d1 18bd c2ed 83bd 2e68 f7bd
00000120: 9067 f9bd e17d 673d b1cf 5f3d 7cb1 d6bd
00000130: 7fbe 28bd b13a f5bd 08bf 25bd fdb0 e83d
00000140: 0e6e 633d 6137 f23c 476d 8a3c 64fd 85bc
00000150: 6644 ff3c cd8b 24bc fc8c f9bd 47b1 09bd
00000160: f03d 92bd a82c cd3d 2e23 213d 0428 cc3d
00000170: edbf 8e3d 1e9c b4bd cbd8 db3c 59c8 a63d
00000180: 3e9d b1bc 80fd a6bd 86bc 833d 9b2e 28bc
00000190: b0e8 523c 5e3a 853d cc83 6f3d c4fb 6f3a
000001a0: 6254 013c 5d8f 0fbd e2e9 e0bd d52e 0e3d
000001b0: 2ef7 713d 0690 c63d a276 91bd 74fa 42bd
000001c0: 19af 99bd 63bb 903d b0e3 503c 2694 c5bd
000001d0: 16e1 a6bd 08bf c5bd 6844 19bd 8859 5fbd
000001e0: 5d3e ab3d 611f 283d 0d71 c53b f823 a43d
000001f0: dcd6 babd fbcd b53d 3130 c93c a462 1f3d
00000200: e54a c73b 16e2 eb3d de45 ad3d 56b0 f8b8
00000210: 5901 95bd 645b 65bd 8f55 f4bc 419f 9d3d
00000220: 801d a53d eddc a53d 3ab9 fabd 830e 7c3d
00000230: 3ccd 7dbd e396 873d b21a dc3c c070 70bd
00000240: 226f 913d 539f 6b3d fccf ccbd eb19 b13d
00000250: d0ce 83bc ea9f cf3d 50b0 0ebc 70c7 97bd
00000260: 2c9a 42bd 9b3f 3a3d bfb1 463d 78db ce3c
00000270: 536e 973d 1e46 973d 58e3 8b3d 9a7a 793d
00000280: 0db6 e33d 6a88 903c 40b8 f1bd 679a 3abd
00000290: 6447 693d 7e2f d63d 45fb 2f3d 4812 f2bd
000002a0: 22d2 89bd 743c febd e864 debd 0e98 07bd
000002b0: cad1 fdbd e2a9 393c 4b9e b5bc e7c9 8a3c
000002c0: a145 ae3c 581a 50bd a433 733d 5a40 d3bd
000002d0: 228a 15bd 458e f23d acf1 edbd d014 9f3d
000002e0: 3adb 1c3d 2c65 26bd 2e4d b63d bc3e 153d
000002f0: a86a 353d 88cf 95bd 07ee 0b3d 6fac e23c
00000300: 70c6 a63d 409b 87bb dbf2 12bd f805 853d
00000310: d06d 96bb 1632 f0bd 52e5 c7bd 6a71 f6bd
00000320: 980d 9b3d 1dfa 8a3c ebab da3c 7251 b3bd
00000330: e0bb 62bd f9b0 92bd 6814 4ebd a6db adbd
00000340: 284f 943d 3483 edbd 22e4 fdbd f4a4 68bd
00000350: a5d5 4e3d c028 e1bc 9f8b 943d e4ec e1bd
00000360: a056 39bd 804f b63d c448 b9bd b270 683d
00000370: 6540 4d3d c8ef c5bd eb08 2d3d 28c3 df3c
00000380: cf03 2fbc 19c2 a33d beb2 e43d 5ba2 0b3e
00000390: 0a2a 733d 9857 3fbc 82d5 843d da67 893d
000003a0: 88b9 8bbb 7085 7cbd bf5d a33d e177 8fbd
000003b0: 585f 6ebd 35ab e33d 760b ad3d 6302 b23d
000003c0: 4f41 cd3d 6184 ce3d ef7d 513d 64db f7bd
000003d0: 9403 dfbd 096f a1bc 66d0 79bd a3f1 093e
000003e0: 5711 d8bd d8e5 b43c 0f1a 3fbd 9f61 b03d
000003f0: aa9e b8bd 11ed eebd 5b72 873d dbb2 903d

decoder.2.weight f4 [411, 256]
-0.023371745 -0.06293204 -0.028105337 0.034777693 0.027341738 -0.002212315 -0.06394839 0.059653528
0.04765628 -0.019568931 0.05211404 0.05312122 0.0053974907 0.052542776 0.05294089 -0.011207655
0.0090220515 0.02238945 -0.052008286 0.065291256 -0.0039148703 -0.03443116 -0.036055982 0.045465093
0.0561773 0.01386518 -0.043474667 0.046858124 0.049186293 0.03451538 -0.011925777 -0.042924233
-0.005068395 -0.008482255 0.03980688 0.047893252 -0.009141925 0.02170742 0.050930467 -0.013567748
0.058069717 -0.00076162454 0.037978314 0.0075893174 0.03462173 -0.029501773 0.029177422 -0.03287151
-0.01842136 0.046715375 0.03758922 0.023847349 -0.045716252 -0.032925986 -0.06591367 -0.045380484
-0.015613843 0.033460252 0.015912551 -0.028917834 -0.00083693117 0.015558995 0.06530913 -0.002021941
0.035437852 0.0018151551 -0.027349329 0.05035454 -0.03247421 -0.014081605 0.036817174 0.011715874
-0.012013227 0.041295357 -0.00044531288 -0.04285481 -0.020020511 -0.02044177 -0.057357557 -0.054276977
0.05650428 -0.047421854 0.015940541 0.035334583 0.019289162 0.04377381 -0.05214429 0.03762523
-0.061348006 -0.028481651 -0.0087672025 -0.04953122 0.02148694 0.049218357 -0.0145839155 -0.004889844
0.04638447 -0.021192115 -0.030653968 0.017982516 0.0036792543 0.009716857 -0.0177156 -0.0059620985
-0.051738203 0.05278141 -0.058430538 -0.04152636 -0.007011071 -0.05683228 0.03242493 -0.010351934
0.048781462 -0.033600982 -0.012480626 -0.050577447 -0.005204946 0.061558556 -0.040072016 -0.0057442784
0.027309893 0.00069547974 -0.05136155 0.05095112 -0.052379735 0.040764105 -0.0030653956 -0.040010013
-0.01883379 -0.061592285 -0.055668045 0.03238321 0.0001759379 -0.014222376 0.016618036 0.025428023
-0.05688721 0.023071181 -0.014136605 -0.050512016 0.023644991 0.014018929 0.010367251 0.02017707
0.02700004 -0.032685027 0.015250785 0.048296 0.028173024 0.0044611804 0.058777712 0.04123203
-0.039665505 -0.0061498936 0.0139753055 -0.055270523 0.048275925 0.05752573 -0.05523009 0.04680998
-0.013040121 0.026584087 -0.06087184 0.013553359 0.012139398 0.045921396 0.0027499741 0.016118415
-0.057805195 -0.00039566308 0.055087224 0.016032692 -0.053548492 -0.05046225 -0.017511642 -0.020002767
-0.019588117 -0.007240832 0.048835404 0.019944793 -0.038972627 0.0427399 0.0010179579 0.029203173
-0.045158092 -0.049935505 0.01865453 -0.019964812 -0.003993958 0.003989078 -0.044053253 0.053620644
0.039747622 0.054508813 -0.017683115 -0.0144490665 -0.02218338 -0.01531148 -0.00456139 0.03470073
-0.014912744 0.038725615 -0.025859475 0.025691882 -0.011106342 0.06289092 -0.011000298 -0.006912023
0.025765616 -0.00032713264 0.054470047 -0.03359636 0.0141735105 -0.04325691 -0.03764226 -0.014842361
0.062808 0.024457004 -0.046492025 -0.0016084539 -0.021283614 -0.027474776 -0.01820683 -0.07109566
0.03208153 -0.00571288 -0.03307329 -0.011167455 0.044274572 -0.014864641 -0.0053547765 -0.019344464
0.04853882 0.0018673716 -0.020458736 -0.051385522 0.018091552 -0.043429676 0.028795231 0.044730447
-0.024279317 -0.002409903 -0.03207159 -0.0025778562 0.041255303 0.05274631 0.052681144 0.009556452
-0.046478745 0.0015495897 0.07082865 0.029436091 0.02411957 -0.013737694 -0.037541874 -0.04798468
00000000: 1a76 bfbc 83e2 80bd 2a3d e6bc 0e73 0e3d
00000010: c8fb df3c 7dfc 10bb 60f7 82bd 4257 743d
00000020: 3b33 433d 064f a0bc 8875 553d a395 593d
00000030: 6fdd b03b 1837 573d 8cd8 583d 50a0 37bc
00000040: 3ad1 133c 146a b73c a406 55bd 6cb7 853d
00000050: 5048 80bb b007 0dbd 70af 13bd 9b39 3a3d
00000060: 2b1a 663d c82a 633c 7e12 32bd 4eee 3f3d
00000070: 9177 493d 0060 0d3d 5664 43bc 52d1 2fbd
00000080: c714 a6bb 28f9 0abc 8a0c 233d b72b 443d
00000090: 03c8 15bc c2d3 b13c 779c 503d 424b 5ebc
000000a0: 83da 6d3d c2a7 47ba 268f 1b3d cfaf f83b
000000b0: 84cf 0d3d b4ad f1bc 7d05 ef3c 47a4 06bd
000000c0: 64e8 96bc 9f58 3f3d 27f7 193d 845b c33c
000000d0: f740 3bbd 66dd 06bd bffd 86bd e3e0 39bd
000000e0: 34d1 7fbc 9e0d 093d 0a5b 823c 18e5 ecbc
000000f0: 8065 5bba 28eb 7e3c cbc0 853d 8a82 04bb
00000100: 4827 113d 80ea ed3a b30b e0bc 9040 4e3d
00000110: ad03 05bd 88b6 66bc 9bcd 163d f0f3 3f3c
00000120: 20d3 44bc 5225 293d e278 e9b9 8688 2fbd
00000130: 0e02 a4bc 8075 a7bc c2ef 6abd 8951 5ebd
00000140: 0871 673d 6b3d 42bd bd95 823c ffba 103d
00000150: 4e04 9e3c 2b4c 333d 4095 55bd ea1c 1a3d
00000160: 0c48 7bbd 5a52 e9bc 50a4 0fbc 40e1 4abd
00000170: 6105 b03c 3099 493d 60f1 6ebc fc3a a0bb
00000180: a4fd 3d3d 169b adbc 081e fbbc 1250 933c
00000190: a51f 713b 7433 1f3c 4e20 91bc b55d c3bb
000001a0: 70eb 53bd 5231 583d dc54 6fbd 8b17 2abd
000001b0: 20bd e5bb f7c8 68bd 01d0 043d 289b 29bc
000001c0: 12cf 473d 2fa1 09bd 8a7b 4cbc 4c2a 4fbd
000001d0: 408e aabb d324 7c3d 8e22 24bd 803a bcbb
000001e0: ffb8 df3c db50 363a 7d60 52bd 1fb2 503d
000001f0: 228c 56bd 43f8 263d cee4 48bb 8ae1 23bd
00000200: 5249 9abc 3148 7cbd 2d04 64bd 42a4 043d
00000210: f87b 3839 f804 69bc 8c22 883c 6e4e d03c
00000220: 9002 69bd c6ff bc3c 389d 67bc b0e5 4ebd
00000230: 24b3 c13c a6af 653c 67db 293c 624a a53c
00000240: 302f dd3c bce0 05bd 6ede 793c 07d2 453d
00000250: 1dcb e63c 182f 923b e6c0 703d ebe2 283d
00000260: 4c78 22bd 0c85 c9bb aef8 643c 5863 62bd
00000270: fabc 453d 1aa0 6b3d f238 62bd d2bb 3f3d
00000280: 3ba6 55bc dfc6 d93c c054 79bd e80e 5e3c
00000290: 53e4 463c 1318 3c3d e938 343b c40a 843c
000002a0: 24c5 6cbd 0071 cfb9 24a3 613d fe56 833c
000002b0: aa55 5bbd 81b1 4ebd 9374 8fbc d8dc a3bc
000002c0: 4277 a0bc 8044 edbb a207 483d 4363 a33c
000002d0: c3a1 1fbd 0910 2f3d 006d 853a 7e3b ef3c
000002e0: b1f7 38bd 2c89 4cbd 63d1 983c 3f8d a3bc
000002f0: bfdf 82bb d0b6 823b 2f71 34bd 52a1 5b3d
00000300: 67ce 223d a244 5f3d 2edc 90bc c7bb 6cbc
00000310: ebb9 b5bc 00dd 7abc b677 95bb 5a22 0e3d
00000320: 9554 74bc c09e 1e3d 40d7 d3bc c877 d23c
00000330: 60f7 35bc f4cc 803d 983a 34bc 407e e2bb
00000340: 6a12 d33c 0083 abb9 fc1b 5f3d 569c 09bd
00000350: 0338 683c 282e 31bd c52e 1abd 602d 73bc
00000360: 7ba1 803d 0e5a c83c 6c6e 3ebd c2d2 d2ba
00000370: f95a aebc c812 e1bc 7d26 95bc 9a9a 91bd
00000380: ec67 033d 1c33 bbbb dc77 07bd b4f7 36bc
00000390: 4159 353d d38a 73bc 1f77 afbb 4878 9ebc
000003a0: a4d0 463d 98c2 f43a 1499 a7bc a079 52bd
000003b0: bc34 943c 51e3 31bd fae3 eb3c 4637 373d
000003c0: 6be5 c6bc 77ef 1dbb 805d 03bd 40f1 28bb
000003d0: 52fb 283d 840c 583d 2fc8 573d aa92 1c3c
000003e0: 7f60 3ebd 9a1b cb3a 9c0e 913d f523 f13c
000003f0: 6896 c53c 1114 61bc 82c5 19bd 958b 44bd

decoder.2.bias f4 [411]
-0.005462132 -0.04125505 0.015183434 0.01676084 0.048798718 0.025982354 0.0014111856 -0.000789104
0.035809778 -0.0037016766 0.01677205 -0.05746278 0.018182557 -0.03504745 -0.009237137 -0.0223674
-0.008671891 0.024051245 -0.031044787 0.03890569 -0.015295758 -0.023483876 0.025636181 -0.0009936566
-0.01430115 -0.018128477 0.022952115 0.028096966 0.007585359 -0.03982034 0.002424921 0.02850551
-0.040841438 0.017442748 -0.013092245 0.047077034 -0.01816412 -0.051760916 0.009714011 -0.017283633
0.0361142 -0.052376572 -0.033217866 0.05921837 0.022790758 -0.029706325 0.027257254 -0.032778203
0.022313964 0.04253524 -0.02689654 0.02227063 0.06237398 -0.041952923 0.0434975 -0.00306175
0.003385781 0.035717566 0.061799746 -0.04225564 0.009865439 -0.018944405 0.0012858515 0.048532475
-0.0034633852 -0.017614236 -0.05149866 -0.0043666377 0.028243884 0.013942611 0.008340904 0.022731073
-0.049268115 -0.0027493746 0.045774374 -0.043309554 -0.05438975 -0.013075787 0.037179004 -0.019920673
0.017632874 -0.049299777 0.048239853 0.0011758101 -0.02458218 -0.009444526 0.03626439 0.0328729
-0.04080321 0.01604287 -0.014115743 -0.0038232426 0.02406068 -0.0033356573 -0.023897184 0.008587739
0.044505566 -0.0020365673 0.034513637 0.047821205 0.004710159 -0.018519057 -0.033982884 0.05370527
0.038520392 -0.029494038 0.054029256 0.02884839 0.02208863 -0.034420185 0.047346767 0.038725976
0.053490948 0.00393233 -0.03936786 -0.024119776 -0.037257463 -0.031686 -0.044377625 0.031496942
0.015160573 -0.048005998 0.0235607 -0.045857478 0.04300646 0.019646158 0.046344552 -0.057017755
0.029947728 -0.04253891 0.033867653 0.022393318 0.042636387 0.025730953 -0.045113485 0.027262738
-0.03955688 0.0030404048 0.024241097 0.036465388 -0.02208106 -0.023657262 -0.043754447 0.030561354
0.0014345963 -0.025815845 0.028468937 -0.019591087 -0.012995838 0.014823374 -0.038154945 -0.02658689
-0.0049340995 0.00093503506 -0.036145873 0.030945854 0.03271995 0.04281627 0.023575684 -0.026150662
0.02317409 0.015511969 -0.041899867 -0.018712569 0.030210553 0.0472721 -0.044550575 0.0078070825
0.037686113 -0.0059370585 0.013413587 0.039149743 0.027534837 -0.025920732 0.04917363 -0.02099178
0.022301262 0.049097624 0.049510844 -0.043458473 -0.002470413 0.040220924 -0.020966591 -0.008939435
0.01852115 -0.019461157 -0.008525544 0.05181063 0.01912306 -0.011037221 -0.005327336 -0.040273245
-0.0017298857 0.0032279107 0.048946835 -0.0060939486 0.029538138 -0.042058468 -0.050088417 0.05228014
-0.053745326 0.000839903 0.0064302855 -0.021855505 0.04285832 0.01851127 -0.026213689 0.038108878
0.011554895 0.01263291 0.02651198 -0.016858656 -0.0040813354 -0.022782007 0.047046855 0.03909004
0.027615497 -0.04778929 -0.042115808 -0.018128622 -0.013477902 -0.0215801 0.036382683 -0.033536218
0.02788664 -0.030932229 -0.031532504 0.022651281 0.011457022 -0.017706942 -0.04748679 -0.035509173
0.041124076 -0.0020350004 -0.00205644 0.031571988 -0.013504179 -0.009309087 -0.01691984 -0.039034966
0.033413216 -0.0063223797 0.0044208243 -0.0155377565 -0.03580169 0.008616483 0.048374895 -0.02315686
0.053686164 -0.014003227 -0.024386209 -0.044587314 0.033020902 0.048302967 -0.020098308 -0.022613069
00000000: affb b2bb 0efb 28bd f0c3 783c 074e 893c
00000010: 2ae1 473d f2d8 d43c 88f7 b83a dfdb 4eba
00000020: 46ad 123d d497 72bb 8a65 893c 185e 6bbd
00000030: 96f3 943c ea8d 0fbd 5c57 17bc d63b b7bc
00000040: 8c14 0ebc 1e07 c53c a351 febc 935b 1f3d
00000050: 0f9b 7abc 4261 c0bc f802 d23c 953d 82ba
00000060: 5f4f 6abc 2c82 94bc 1306 bc3c 9c2b e63c
00000070: 9a8e f83b a71a 23bd 6ceb 1e3b 6384 e93c
00000080: 5a49 27bd 18e4 8e3c db80 56bc d9d3 403d
00000090: eccc 94bc 4103 54bd 8427 1f3c 6896 8dbc
000000a0: 7cec 133d d188 56bd 750f 08bd f68e 723d
000000b0: afb3 ba3c ae5a f3bc 9b4a df3c 7042 06bd
000000c0: c6cb b63c 6f39 2e3d 2256 dcbc e570 b63c
000000d0: dc7b 7f3d d4d6 2bbd 6f2a 323d a4a7 48bb
000000e0: fbe3 5d3b 954c 123d bb21 7d3d 4014 2dbd
000000f0: a6a2 213c 4c31 9bbc 048a a83a fdc9 463d
00000100: f6f9 62bb bb4b 90bc 42f0 52bd 0316 8fbb
00000110: b85f e73c 8d6f 643c 49a8 083c 8436 ba3c
00000120: 5dcd 49bd da2e 34bb e97d 3b3d 5c65 31bd
00000130: c9c7 5ebd d33b 56bc 0349 183d ae30 a3bc
00000140: d172 903c 90ee 49bd 2797 453d a41d 9a3a
00000150: 9160 c9bc 37bd 1abc f889 143d bca5 063d
00000160: 4421 27bd 566c 833c b845 67bc 5e8f 7abb
00000170: e71a c53c 0b9b 5abb 07c4 c3bc 97b3 0c3c
00000180: 784b 363d ee77 05bb 2c5e 0d3d 2be0 433d
00000190: ad57 9a3b 47b5 97bc a331 0bbd 0ffa 5b3d
000001a0: 8fc7 1d3d 7b9d f1bc c84d 5d3d 7553 ec3c
000001b0: 37f3 b43c 2efc 0cbd afee 413d 219f 1e3d
000001c0: 5319 5b3d c6da 803b 3140 21bd d696 c5bc
000001d0: 489b 18bd 2ec9 01bd 50c5 35bd f002 013d
000001e0: 0d64 783c f0a1 44bd 5e02 c13c 0dd5 3bbd
000001f0: 8b27 303d fbf0 a03c c9d3 3d3d 738b 69bd
00000200: f054 f53c 483d 2ebd cfb8 0a3d 3172 b73c
00000210: 7ea3 2e3d b8c9 d23c ebc8 38bd 1b56 df3c
00000220: 6506 22bd 8741 473b 4495 c63c bb5c 153d
00000230: 57e3 b4bc e0cc c1bc dd37 33bd ce5b fa3c
00000240: 1009 bc3a c07b d3bc b037 e93c 7d7d a0bc
00000250: 7fec 54bc bddd 723c 5c48 1cbd c0cc d9bc
00000260: 3aae a1bb 241d 753a b20d 14bd 2982 fd3c
00000270: 5b05 063d 1d60 2f3d cb21 c13c ea39 d6bc
00000280: 97d7 bd3c ea25 7e3c 329f 2bbd 1a4b 99bc
00000290: 1f7c f73c 64a0 413d aa7a 36bd 8ed2 ff3b
000002a0: c15c 1a3d a88b c2bb a9c4 5b3c 7b5b 203d
000002b0: bd90 e13c b757 d4bc 4a6a 493d f4f6 abbc
000002c0: 23b1 b63c 971a 493d e2cb 4a3d 8301 32bd
000002d0: a7e6 21bb b2be 243d 21c2 abbc b576 12bc
000002e0: abb9 973c 016d 9fbc b9ae 0bbc 6237 543d
000002f0: f7a7 9c3c 76d5 34bc ef90 aebb 8ff5 24bd
00000300: 55bd e2ba 5b8b 533b 7a7c 483d bfaf c7bb
00000310: f7f9 f13c 8045 2cbd 8329 4dbd b323 563d
00000320: 0f24 5cbd f02c 5c3a 25b5 d23b 510a b3bc
00000330: 358c 2f3d f2a4 973c 17be d6bc 0e18 1c3d
00000340: be50 3d3c 44fa 4e3c a72f d93c 2a1b 8abc
00000350: b9bc 85bb 55a1 babc 34b4 403d e11c 203d
00000360: e539 e23c b4be 43bd a081 2cbd 7a82 94bc
00000370: 6bd2 5cbc c0c8 b0bc 0206 153d 465d 09bd
00000380: 8672 e43c 9665 fdbc 3a28 01bd 2e8f b93c
00000390: 3cb6 3b3c 260e 91bc 8281 42bd 1172 11bd
000003a0: b871 283d a45d 05bb 57c5 06bb a151 013d
000003b0: a240 5dbc 2485 18bc 7a9b 8abc 21e3 1fbd
000003c0: 4cdc 083d f72b cfbb 90dc 903b 1392 7ebc
000003d0: cba4 12bd 262c 0d3c c124 463d 75b3 bdbc
000003e0: 06e6 5b3d cb6d 65bc 96c5 c7bc 30a1 36bd
000003f0: ed40 073d 55d9 453d 35a5 a4bc 0b3f b9bc
